…
	'OldH5Dataset': {'h5_path': 'datasets/cifar10-32.h5', 'model_dataset_depth_offset': 2, 'max_images': None, 'model_initial_depth': 0, 'alpha': 1.0, 'range_in': (0, 255), 'range_out': (-1, 1), 'transform': None},
	'ImageSaver': {'samples_path': '.', 'drange': (-1, 1), 'resolution': 512, 'create_subdirs': True},
	'Postprocessor': {'samples_path': '.'},
	'SoundSaver': {'samples_path': '.', 'drange': (-1, 1), 'resolution': 512, 'mode': 'abslog', 'sample_rate': 16000, 'hop_length': 128, 'create_subdirs': True, 'verbose': False, 'griffin_lim_iter': 100},
}
Resuming 001-orig512/network-snapshot-{}-000550.dat
Generator (
  (block0): GFirstBlock (
    (c1): PGConv2d (
      (conv): Conv2d(512, 512, kernel_size=(4, 4), stride=(1, 1), padding=(3, 3))
      (act): LeakyReLU (0.2)
    )
    (c2): PGConv2d (
      (conv): Conv2d(512, 512, kernel_size=(3, 3), stride=(1, 1), padding=(1, 1))
      (act): LeakyReLU (0.2)
    )
    (toRGB): PGConv2d (
      (conv): Conv2d(512, 1, kernel_size=(1, 1), stride=(1, 1))
    )
  )
  (blocks): ModuleList (
    (0): GBlock (
      (c1): PGConv2d (
        (conv): Conv2d(512, 512, kernel_size=(3, 3), stride=(1, 1), padding=(1, 1))
        (act): LeakyReLU (0.2)
      )
      (c2): PGConv2d (
        (conv): Conv2d(512, 512, kernel_size=(3, 3), stride=(1, 1), padding=(1, 1))
        (act): LeakyReLU (0.2)
      )
      (toRGB): PGConv2d (
        (conv): Conv2d(512, 1, kernel_size=(1, 1), stride=(1, 1))
      )
    )
    (1): GBlock (
      (c1): PGConv2d (
        (conv): Conv2d(512, 512, kernel_size=(3, 3), stride=(1, 1), padding=(1, 1))
        (act): LeakyReLU (0.2)
      )
      (c2): PGConv2d (
        (conv): Conv2d(512, 512, kernel_size=(3, 3), stride=(1, 1), padding=(1, 1))
        (act): LeakyReLU (0.2)
      )
      (toRGB): PGConv2d (
        (conv): Conv2d(512, 1, kernel_size=(1, 1), stride=(1, 1))
      )
    )
    (2): GBlock (
      (c1): PGConv2d (
        (conv): Conv2d(512, 256, kernel_size=(3, 3), stride=(1, 1), padding=(1, 1))
        (act): LeakyReLU (0.2)
      )
      (c2): PGConv2d (
        (conv): Conv2d(256, 256, kernel_size=(3, 3), stride=(1, 1), padding=(1, 1))
        (act): LeakyReLU (0.2)
      )
      (toRGB): PGConv2d (
        (conv): Conv2d(256, 1, kernel_size=(1, 1), stride=(1, 1))
      )
    )
    (3): GBlock (
      (c1): PGConv2d (
        (conv): Conv2d(256, 128, kernel_size=(3, 3), stride=(1, 1), padding=(1, 1))
        (act): LeakyReLU (0.2)
      )
      (c2): PGConv2d (
        (conv): Conv2d(128, 128, kernel_size=(3, 3), stride=(1, 1), padding=(1, 1))
        (act): LeakyReLU (0.2)
      )
      (toRGB): PGConv2d (
        (conv): Conv2d(128, 1, kernel_size=(1, 1), stride=(1, 1))
      )
    )
    (4): GBlock (
      (c1): PGConv2d (
        (conv): Conv2d(128, 64, kernel_size=(3, 3), stride=(1, 1), padding=(1, 1))
        (act): LeakyReLU (0.2)
      )
      (c2): PGConv2d (
        (conv): Conv2d(64, 64, kernel_size=(3, 3), stride=(1, 1), padding=(1, 1))
        (act): LeakyReLU (0.2)
      )
      (toRGB): PGConv2d (
        (conv): Conv2d(64, 1, kernel_size=(1, 1), stride=(1, 1))
      )
    )
    (5): GBlock (
      (c1): PGConv2d (
        (conv): Conv2d(64, 32, kernel_size=(3, 3), stride=(1, 1), padding=(1, 1))
        (act): LeakyReLU (0.2)
      )
      (c2): PGConv2d (
        (conv): Conv2d(32, 32, kernel_size=(3, 3), stride=(1, 1), padding=(1, 1))
        (act): LeakyReLU (0.2)
      )
      (toRGB): PGConv2d (
        (conv): Conv2d(32, 1, kernel_size=(1, 1), stride=(1, 1))
      )
    )
    (6): GBlock (
      (c1): PGConv2d (
        (conv): Conv2d(32, 16, kernel_size=(3, 3), stride=(1, 1), padding=(1, 1))
        (act): LeakyReLU (0.2)
      )
      (c2): PGConv2d (
        (conv): Conv2d(16, 16, kernel_size=(3, 3), stride=(1, 1), padding=(1, 1))
        (act): LeakyReLU (0.2)
      )
      (toRGB): PGConv2d (
        (conv): Conv2d(16, 1, kernel_size=(1, 1), stride=(1, 1))
      )
    )
  )
)
Total nuber of parameters in Generator: 18353880
Discriminator (
  (blocks): ModuleList (
    (0): DBlock (
      (fromRGB): PGConv2d (
        (conv): Conv2d(1, 16, kernel_size=(1, 1), stride=(1, 1))
        (act): LeakyReLU (0.2)
      )
      (c1): PGConv2d (
        (conv): Conv2d(16, 16, kernel_size=(3, 3), stride=(1, 1), padding=(1, 1))
        (act): LeakyReLU (0.2)
      )
      (c2): PGConv2d (
        (conv): Conv2d(16, 32, kernel_size=(3, 3), stride=(1, 1), padding=(1, 1))
        (act): LeakyReLU (0.2)
      )
    )
    (1): DBlock (
      (fromRGB): PGConv2d (
        (conv): Conv2d(1, 32, kernel_size=(1, 1), stride=(1, 1))
        (act): LeakyReLU (0.2)
      )
      (c1): PGConv2d (
        (conv): Conv2d(32, 32, kernel_size=(3, 3), stride=(1, 1), padding=(1, 1))
        (act): LeakyReLU (0.2)
      )
      (c2): PGConv2d (
        (conv): Conv2d(32, 64, kernel_size=(3, 3), stride=(1, 1), padding=(1, 1))
        (act): LeakyReLU (0.2)
      )
    )
    (2): DBlock (
      (fromRGB): PGConv2d (
        (conv): Conv2d(1, 64, kernel_size=(1, 1), stride=(1, 1))
        (act): LeakyReLU (0.2)
      )
      (c1): PGConv2d (
        (conv): Conv2d(64, 64, kernel_size=(3, 3), stride=(1, 1), padding=(1, 1))
        (act): LeakyReLU (0.2)
      )
      (c2): PGConv2d (
        (conv): Conv2d(64, 128, kernel_size=(3, 3), stride=(1, 1), padding=(1, 1))
        (act): LeakyReLU (0.2)
      )
    )
    (3): DBlock (
      (fromRGB): PGConv2d (
        (conv): Conv2d(1, 128, kernel_size=(1, 1), stride=(1, 1))
        (act): LeakyReLU (0.2)
      )
      (c1): PGConv2d (
        (conv): Conv2d(128, 128, kernel_size=(3, 3), stride=(1, 1), padding=(1, 1))
        (act): LeakyReLU (0.2)
      )
      (c2): PGConv2d (
        (conv): Conv2d(128, 256, kernel_size=(3, 3), stride=(1, 1), padding=(1, 1))
        (act): LeakyReLU (0.2)
      )
    )
    (4): DBlock (
      (fromRGB): PGConv2d (
        (conv): Conv2d(1, 256, kernel_size=(1, 1), stride=(1, 1))
        (act): LeakyReLU (0.2)
      )
      (c1): PGConv2d (
        (conv): Conv2d(256, 256, kernel_size=(3, 3), stride=(1, 1), padding=(1, 1))
        (act): LeakyReLU (0.2)
      )
      (c2): PGConv2d (
        (conv): Conv2d(256, 512, kernel_size=(3, 3), stride=(1, 1), padding=(1, 1))
        (act): LeakyReLU (0.2)
      )
    )
    (5): DBlock (
      (fromRGB): PGConv2d (
        (conv): Conv2d(1, 512, kernel_size=(1, 1), stride=(1, 1))
        (act): LeakyReLU (0.2)
      )
      (c1): PGConv2d (
        (conv): Conv2d(512, 512, kernel_size=(3, 3), stride=(1, 1), padding=(1, 1))
        (act): LeakyReLU (0.2)
      )
      (c2): PGConv2d (
        (conv): Conv2d(512, 512, kernel_size=(3, 3), stride=(1, 1), padding=(1, 1))
        (act): LeakyReLU (0.2)
      )
    )
    (6): DBlock (
      (fromRGB): PGConv2d (
        (conv): Conv2d(1, 512, kernel_size=(1, 1), stride=(1, 1))
        (act): LeakyReLU (0.2)
      )
      (c1): PGConv2d (
        (conv): Conv2d(512, 512, kernel_size=(3, 3), stride=(1, 1), padding=(1, 1))
        (act): LeakyReLU (0.2)
      )
      (c2): PGConv2d (
        (conv): Conv2d(512, 512, kernel_size=(3, 3), stride=(1, 1), padding=(1, 1))
        (act): LeakyReLU (0.2)
      )
    )
    (7): DLastBlock (
      (fromRGB): PGConv2d (
        (conv): Conv2d(1, 512, kernel_size=(1, 1), stride=(1, 1))
        (act): LeakyReLU (0.2)
      )
      (stddev): MinibatchStddev (
      )
      (c1): PGConv2d (
        (conv): Conv2d(513, 512, kernel_size=(3, 3), stride=(1, 1), padding=(1, 1))
        (act): LeakyReLU (0.2)
      )
      (c2): PGConv2d (
        (conv): Conv2d(512, 512, kernel_size=(4, 4), stride=(1, 1))
        (act): LeakyReLU (0.2)
      )
    )
  )
  (linear): Linear (512 -> 1)
)
Total nuber of parameters in Discriminator: 18361521
tick:     1	kimg:  560.000	depth: 3	alpha: 0.60	minibatch_size: 16	time: 0:04:41.211078	sec.tick: 281.2	sec.kimg: 28.1	G_loss: 0.4226	D_loss: -0.2244	D_real: -0.1574	D_fake: -0.1257
tick:     2	kimg:  570.000	depth: 3	alpha: 0.70	minibatch_size: 16	time: 0:08:50.839116	sec.tick: 249.6	sec.kimg: 25.0	G_loss: 0.5791	D_loss: -0.2199	D_real: 0.0286 	D_fake: -0.3082
…
